nn/nn/weights/stn.pth (torch, 224335 bytes, 8 tensors)

localization.0.weight f4 [32, 3, 3, 3]
00000000: 6c17 7c3e de99 9bbb 1bd4 a33c 1f80 5fbe
00000010: 432d 27be cad5 223d 1607 2a3e e39b 603e
00000020: 6b26 913d 1f5f 033e 719f b3bd 32bd c8bc
00000030: 09bc 8bbe bf4f 68be b8fb 973c 6e34 263e
00000040: 5a60 6f3e 7dce c43d 2719 e23c 0fbc c2bc
00000050: 6552 1b3d aecd aabe b1fb 6cbe 6c58 3e3d
00000060: 165f 073e 36d8 2a3e 401e 513d 708f 893b
00000070: e6fc 6b3a 78f9 183d ce63 29bd 12eb eebc
00000080: 795e 453d b412 55bd 028c 6e3c ef50 b83d
00000090: f6fd c5ba adb2 62bb 9aae 093d ad41 21bd
000000a0: 5679 1ebd e6f8 1f3d b982 62bd 21dd a73b
000000b0: 3c42 a83d a52d efbc 6935 12bd 1b05 8ebb
000000c0: 19a6 7ebd 3be2 97bd abf8 4cbb 41ad a7bd
000000d0: da88 05bd 779b 383d bf33 71ba 37e3 d1ba
000000e0: bb48 203b 2d3c daba a383 05bb a405 eb3a
000000f0: c018 2bba d44e a6ba eaf5 663b 72ae 82b8
00000100: 3157 7dba db61 513b 5d07 a9ba f2e8 9dba
00000110: 1c10 313b 9016 c3ba e2ee feb9 ec6c 8b3b
00000120: 455a beb9 9d2e bcba 2fb9 303b 797d b0ba
00000130: 783a efba bcfb fc3a 6255 dbba 61a5 89ba
00000140: a4c1 583b 1311 a7b6 cb5e 1237 684e 50b8
00000150: ddc9 8fb8 a66c 28b7 9648 2d36 dbdd 1639
00000160: 7dcb c4b6 a860 ac38 9e4a 4e37 c335 afb7
00000170: 232e a6b8 07c9 02b8 d2d1 abb8 1313 6fb8
00000180: 58a1 5138 f71b 8837 f70c c9b7 2407 acb7
00000190: 7449 e236 c198 1436 50d0 3bb8 c3ee 46b8
000001a0: 6c98 8c38 91bd 3637 41e4 6438 60f7 f238
000001b0: 3cb2 d299 13b1 f18d 59c0 7593 ddf3 3b95
000001c0: 50f8 8c14 f89f dd16 cf26 1e95 05cf f38f
000001d0: 7493 7394 05a8 ee99 997f b48f 1bf8 0b94
000001e0: 2828 c695 4480 a116 ebe5 4518 eb50 ed93
000001f0: 6769 248f 0319 e114 8628 9696 12ce 8890
00000200: 7bbd ff94 1512 b913 5248 dc16 4b90 1118
00000210: 61a1 a116 e286 b48f 1668 a594 677e 30bc
00000220: 2ddc 09bd 17a3 bb3d 67d6 85bc e5b4 6bbe
00000230: 6cf8 d63d bb55 fe3d e66d e3bd a5b9 7b3e
00000240: f466 583d ea58 98bc 2165 163e 06c7 cc3c
00000250: 8053 28be 8985 a63d 6ee5 1e3e 4dfa 0cbe
00000260: f3cf 7c3e b613 b13b 790d d63c 0155 5b3d
00000270: a346 f0bc e80b c9bd c053 46bd c02a 113d
00000280: 29fe 4fbe 0242 2a3e 6e6c a6bc e2f8 933c
00000290: 43e8 573b d11a b5bb 6569 bf3b 452d ec3c
000002a0: d088 ecbc 469c 59ba 38c6 1f3d f734 c4bc
000002b0: 5735 553c 170c 2fb9 d455 4bbc dbcd 68bb
000002c0: ea54 903c cca8 12bd 2158 b9bb f7e5 103d
000002d0: 7c6d 6dbc e8d3 a43c c12a debb 0882 44bc
000002e0: 37f5 f2bb 80ac b23b c2eb 0ebd 0454 69bc
000002f0: 93d6 be3c 4d27 d63c 5614 753c c665 d0bc
00000300: ecdd 0dbd ffba 80bc 14b8 f2bc 1263 17bd
00000310: a23f 673c 84cd 07bc aea6 353c e52b 693c
00000320: a44e 2dbd 5d9c 3cbd b5c7 dcbc a0de 36bd
00000330: b95f 27bd 26d5 cb3b b125 81bc 10af 333c
00000340: 17d3 de3c 8a45 b1bc d28b 47bd 9444 d5bc
00000350: 7d5a bfbc 27fa 02bd 871e 723c 70f0 f5bb
00000360: 0220 a0b8 eb15 ee35 1896 e236 06f5 2e37
00000370: d365 cfb8 f240 a538 b6c4 fbb7 be21 1cb7
00000380: 75fc 21b7 faef a4b8 3d8f a9b7 126d c2b7
00000390: 017d 4ab6 7c13 05b8 b009 8338 0ce5 2bb8
000003a0: ba0d 8eb7 d9e4 89b6 8fe2 2fb8 6547 1a37
000003b0: 4482 c835 d2bf 1a38 a395 e037 bca1 bf38
000003c0: 9a32 9037 db4c ea37 9692 80b7 d8bc 0b3a
000003d0: 6604 09ba b754 6339 28d6 0a3a 00ba a7b6
000003e0: a866 97b4 76e3 78b9 0f8d 4439 be9f 2938
000003f0: c464 6f39 fd89 3dba 6cad 0d39 5e7f 1a39
0.2461831 -0.004748567 0.0199986 -0.21826218 -0.1632586 0.039754666 0.16604266 0.21934466
0.07087406 0.12829255 -0.087706454 -0.024504278 -0.27291897 -0.2268667 0.018552646 0.16230938
0.23376599 0.09609697 0.027599884 -0.023771314 0.037920374 -0.33360046 -0.23142888 0.046471044
0.13219866 0.1668404 0.05105424 0.0041980073 0.00090022234 0.037347287 -0.041354947 -0.029164825
0.0481858 -0.05201979 0.014559748 0.08999812 -0.0015105593 -0.0034591362 0.03361378 -0.039369274
-0.038689934 0.039055727 -0.055300448 0.005122796 0.08215758 -0.02919657 -0.035695467 -0.0043341047
-0.06217012 -0.07416197 -0.0031276147 -0.081873424 -0.032601215 0.045070138 -0.0009201131 -0.001601315
0.0024457413 -0.0016650014 -0.002037265 0.0017930758 -0.00065268204 -0.0012688288 0.003524179 -6.231376e-05
-0.00096641766 0.0031949196 -0.0012895871 -0.0012047573 0.0027017659 -0.0014884043 -0.00048624637 0.004254928
-0.0003630688 -0.0014357154 0.0026965847 -0.0013465128 -0.0018251678 0.0019301097 -0.001673382 -0.0010501557
0.0033074403 -4.9789755e-06 8.724349e-06 -4.9664086e-05 -6.856371e-05 -1.0038877e-05 2.582126e-06 0.00014387762
-5.8649443e-06 8.219603e-05 1.229593e-05 -2.088666e-05 -7.9240905e-05 -3.1181637e-05 -8.1929975e-05 -5.6999805e-05
4.9979746e-05 1.6225486e-05 -2.3967104e-05 -2.0507323e-05 6.743876e-06 2.2142633e-06 -4.477828e-05 -4.7429243e-05
6.704111e-05 1.0892182e-05 5.4572014e-05 0.000115855364 -2.178548e-23 -1.4895401e-30 -3.1018182e-27 -3.7956723e-26
1.423433e-26 3.580543e-25 -3.193846e-26 -2.4041391e-29 -1.2297445e-26 -2.4676486e-23 -1.7798519e-29 -7.066637e-27
-8.003492e-26 2.60919e-25 2.5577732e-24 -5.9907002e-27 -8.106124e-30 2.272906e-26 -2.425938e-25 -5.3960043e-29
-2.5823157e-26 4.6718396e-27 3.5588557e-25 1.881366e-24 2.6112797e-25 -1.7801325e-29 -1.6701797e-26 -0.010772324
-0.03365724 0.09161966 -0.016337587 -0.23018225 0.104966015 0.124186955 -0.11104946 0.24582537
0.05283256 -0.018597085 0.14687015 0.024997246 -0.16438103 0.081309386 0.15517208 -0.13767357
0.24688701 0.005403961 0.026129471 0.053547863 -0.029330557 -0.09816724 -0.048419714 0.03544116
-0.20311798 0.16626742 -0.020315375 0.018063013 0.0032944835 -0.0055268784 0.0058414214 0.02883018
-0.028873831 -0.00083011796 0.039007396 -0.023951037 0.0130132055 -0.00016693804 -0.0124106 -0.003552309
0.017618615 -0.03580551 -0.0056562577 0.03537556 -0.014491435 0.020120576 -0.006779999 -0.0119938925
-0.007414486 0.0054526925 -0.034892805 -0.014241222 0.023295676 0.026141787 0.014958462 -0.025439154
-0.03463547 -0.015714167 -0.02962879 -0.036959715 0.014114292 -0.008288745 0.011087103 0.014231657
-0.042311326 -0.046047557 -0.026950696 -0.044645905 -0.040862773 0.0062204776 -0.015765043 0.010967031
0.027200265 -0.021639604 -0.048717327 -0.026033677 -0.023358578 -0.031976845 0.014777786 -0.007505469
-7.6353565e-05 1.7738761e-06 6.752798e-06 1.0428257e-05 -9.8894954e-05 7.87991e-05 -3.0013132e-05 -9.306181e-06
-9.6551275e-06 -7.8648285e-05 -2.021307e-05 -2.3177392e-05 -3.0173107e-06 -3.1727817e-05 6.248371e-05 -4.0982894e-05
-1.6934111e-05 -4.1095595e-06 -4.193425e-05 9.195738e-06 1.4939073e-06 3.6895108e-05 2.677256e-05 9.137715e-05
1.71897e-05 2.7930762e-05 -1.5327048e-05 0.0005330569 -0.00052267907 0.00021679966 0.0005296194 -4.998641e-06
-2.8200634e-07 -0.00023735859 0.00018744565 4.044151e-05 0.00022830354 -0.00072303397 0.00013511413 0.00014734032

localization.0.bias f4 [32]
00000000: 326b e43b 03ad dabd 2814 00bc c1d4 2abb
00000010: a1f4 7ca6 e115 b8be 37fa 30bd fe3f e0bd
00000020: b0da 2dbb fec8 e7bb 2084 bcbd d62c 06be
00000030: 2f85 683b 92f3 3bbd 48e8 c6bc 79a6 26bd
00000040: 3688 adba 692e f8bd 2929 83bb 2e0a 40bc
00000050: ba31 b6bc fe24 1dbb 3da9 93bd 930e 5dbe
00000060: 3e23 09bd 2d6b cabe ebcb 8abb b993 aaba
00000070: b28f b3bb fba0 7abb 91a7 d3be 0889 32ba
0.0069707865 -0.106775306 -0.007817306 -0.0026066753 -8.7761597e-16 -0.35954192 -0.043207373 -0.109497055
-0.0026528053 -0.0070735207 -0.09204888 -0.13103041 0.0035479774 -0.045886584 -0.024280682 -0.040686104
-0.0013239447 -0.12118227 -0.0040027094 -0.011721177 -0.022240508 -0.0023978348 -0.07210014 -0.21587591
-0.033480875 -0.39534894 -0.0042357347 -0.0013013995 -0.0054797763 -0.0038242924 -0.4133878 -0.00068105804

localization.3.weight f4 [32, 32, 5, 5]
00000000: 60b2 0280 4d23 0200 99dd 0200 5617 0080
00000010: e898 0200 6c36 0080 a854 0000 0b08 0200
00000020: 4383 0100 7b68 0380 b52c b687 0866 5986
00000030: d169 0000 33f0 0200 7bf1 e288 e8f4 0200
00000040: 611a 0987 639f 8689 5d3c da83 4ff7 af84
00000050: a97e 2281 9a59 b989 0fb6 e888 7bb4 468d
00000060: 1c73 3b88 33ba 0200 c646 0180 0509 0100
00000070: 7e0d 0280 7273 0180 0c6a 0000 56e7 0180
00000080: d2be 0380 fba4 0300 4438 0100 3bb3 0300
00000090: 907e 0100 e68f 0280 147a 0080 b529 0180
000000a0: 43f0 0000 cb19 0280 2e6b 0000 c746 0280
000000b0: 9177 0380 fa6b 0380 15ab 0380 6815 0280
000000c0: 6763 0000 07fd 0180 7d5d 0200 ea14 0200
000000d0: 404f 0280 f113 0100 0f82 0380 6533 0100
000000e0: bed6 0180 3b7b 0280 9e17 0100 06b9 0300
000000f0: 4069 0280 d7db 0200 bc74 0000 3033 0280
00000100: ee90 0000 0425 0180 f045 0080 cc72 0380
00000110: 9113 0200 961c 0380 fb88 0300 2ba2 0000
00000120: e822 0100 1c72 0180 bbc5 0180 dcbf 0380
00000130: 3aba 0300 17a9 0200 f815 0280 1faf 0080
00000140: 37b4 0180 c46d 0100 ad9a 0380 bbd8 0200
00000150: 98c1 0000 7188 0300 20f6 0200 1e64 0200
00000160: 70bf 0380 2cc4 0380 f98b 0180 5499 0080
00000170: ed85 0280 2dc7 0000 5e39 0000 7150 0100
00000180: c7a0 0000 96b3 0280 b49b 0200 9f3a 0100
00000190: a7c0 0200 406e 0000 6b47 0280 f14f 0200
000001a0: 4100 0180 90c0 0200 56bc 0280 798f 0280
000001b0: ea8d 0280 2f35 0000 51ed 0200 b89f 0380
000001c0: 3aa6 0200 e268 0280 df40 0180 45a7 0300
000001d0: 493a 0200 4f38 0080 f063 0380 0be2 0000
000001e0: 6f6b 0280 26d0 0080 5d09 0180 b00a 0200
000001f0: 784f 0200 c58d 0280 d86b 0080 ef86 0080
00000200: f2e4 0280 b8fe 0200 4592 0300 9a37 0280
00000210: 63ed 0080 3392 0000 a4b7 0100 9a91 0080
00000220: ae27 0200 9421 0100 c040 0280 a104 0180
00000230: 682d 0380 c545 0300 0739 0380 e299 0380
00000240: 4bf3 0080 aff1 0080 8ad9 0180 5843 0200
00000250: cdc7 0080 62ec 0000 1e21 0380 382e 0280
00000260: a798 0000 8c16 0100 8b55 0080 f3ac 0300
00000270: 670d 0100 7cc5 0300 776d 0280 5f6e 0080
00000280: e6c6 0200 a6ed 0000 37a3 0000 58d2 0080
00000290: e9a7 0300 c196 0300 837d 0180 669b 0180
000002a0: 8d3f 0380 52f0 0080 89fb 0080 c010 0080
000002b0: a4c6 0000 ba22 0080 cea4 0200 10e9 0180
000002c0: 0e37 0200 f37a 0300 9c7f 0100 fd9e 0000
000002d0: 2c6a 0300 f511 0380 5f6a 0180 e7a8 0080
000002e0: 2617 0380 a768 0000 fb32 0300 9588 0180
000002f0: b4f5 0100 3c0d 0300 8b8c 0280 11a8 0180
00000300: 1380 0380 a390 0380 e8fc 0200 c5b4 0180
00000310: b4db 0100 72ab 0180 bb9e 0380 2ae3 0100
00000320: 02cb 0380 a3f8 0000 078e 0200 89f8 0180
00000330: 3d1d 0300 f2ab 0300 3802 0000 1238 0200
00000340: cd98 0200 a8fc 0080 43f3 0200 e39d 0180
00000350: f4bb 0280 ae49 0300 5517 0380 e9c0 0280
00000360: 5c97 0200 8e0b 0180 225b 0000 def1 0080
00000370: ef02 0000 c6b9 0180 2fb6 0380 dc88 0000
00000380: 448d 0380 0085 0080 7d41 0100 6d45 0080
00000390: e85a 0180 cf48 0380 f892 0380 42b2 0300
000003a0: 1530 0380 41e0 0100 f48d 0380 e56d 0000
000003b0: fa76 0080 6e62 0180 2a26 0000 1307 0280
000003c0: 15be 0000 12c3 0380 b2bc 0200 6ae6 0280
000003d0: 7062 0180 77d8 0000 bee0 0080 a3c4 0200
000003e0: a219 0100 c28a 0000 4ecd 0200 0e97 0380
000003f0: c8b0 0080 77d5 0000 f0e3 0100 7ccd 0100
-2.4766e-40 1.96335e-40 2.63165e-40 -8.371e-42 2.38523e-40 -1.9523e-41 3.0369e-41 1.86556e-40
1.38923e-40 -3.12987e-40 -2.7410593e-34 -4.0888125e-35 3.796e-41 2.69838e-40 -1.3658652e-33 2.71527e-40
-1.0314487e-34 -3.2409213e-33 -1.2826747e-36 -4.136942e-36 -2.9845575e-38 -4.462139e-33 -1.4005794e-33 -6.1230706e-31
-5.6408576e-34 2.50467e-40 -1.17224e-40 9.5071e-41 -1.88511e-40 -1.3325e-40 3.8042e-41 -1.74823e-40
-3.4396e-40 3.3469e-40 1.1202e-40 3.39802e-40 1.37238e-40 -2.35292e-40 -4.3793e-41 -1.06797e-40
8.619e-41 -1.92924e-40 3.8449e-41 -2.09061e-40 -3.18399e-40 -3.14241e-40 -3.36879e-40 -1.9135e-40
3.5659e-41 -1.82605e-40 2.17208e-40 1.91174e-40 -2.121e-40 9.8989e-41 -3.22163e-40 1.10272e-40
-1.6887e-40 -2.27878e-40 1.00308e-40 3.4188e-40 -2.21428e-40 2.62535e-40 4.1876e-41 -2.02034e-40
5.1991e-41 -1.05114e-40 -2.5089e-41 -3.16688e-40 1.9069e-40 -2.85761e-40 3.24646e-40 5.8175e-41
1.04357e-40 -1.3277e-40 -1.62768e-40 -3.44333e-40 3.42312e-40 2.44329e-40 -1.91552e-40 -6.2822e-41
-1.56484e-40 1.31212e-40 -3.30994e-40 2.61419e-40 6.9448e-41 3.24452e-40 2.71964e-40 2.19586e-40
-3.44181e-40 -3.4588e-40 -1.42048e-40 -5.5004e-41 -2.31715e-40 7.1451e-41 2.058e-41 1.20692e-40
5.7676e-41 -2.48094e-40 2.39527e-40 1.12865e-40 2.52782e-40 3.955e-41 -2.09291e-40 2.12349e-40
-9.1927e-41 2.5275e-40 -2.51233e-40 -2.35139e-40 -2.3458e-40 1.9079e-41 2.68804e-40 -3.32803e-40
2.43302e-40 -2.21296e-40 -1.15107e-40 3.35511e-40 2.0458e-40 -2.02e-41 -3.11357e-40 8.1089e-41
-2.22211e-40 -7.467e-41 -9.5194e-41 1.87505e-40 2.12179e-40 -2.34528e-40 -3.8687e-41 -4.8405e-41
-2.65801e-40 2.75047e-40 3.27978e-40 -2.03617e-40 -8.5158e-41 5.2446e-41 1.57713e-40 -5.2232e-41
1.97905e-40 1.03881e-40 -2.06899e-40 -9.3496e-41 -2.91795e-40 3.00535e-40 -2.95964e-40 -3.30709e-40
-8.7277e-41 -8.67e-41 -1.69874e-40 2.0783e-40 -7.1675e-41 8.4798e-41 -2.87387e-40 -2.00251e-40
5.4761e-41 9.9924e-41 -3.0687e-41 3.37549e-40 9.6643e-41 3.4635e-40 -2.2294e-40 -3.9594e-41
2.55022e-40 8.5252e-41 5.855e-41 -7.5457e-41 3.35741e-40 3.29587e-40 -1.3686e-40 -1.47582e-40
-2.98304e-40 -8.621e-41 -9.0234e-41 -6.009e-42 7.1259e-41 -1.2458e-41 2.42792e-40 -1.75443e-40
2.03421e-40 3.19612e-40 1.37613e-40 5.7034e-41 3.13594e-40 -2.81948e-40 -1.29994e-40 -6.0591e-41
-2.8381e-40 3.7542e-41 2.93795e-40 -1.40832e-40 1.79977e-40 2.80254e-40 -2.34088e-40 -1.52126e-40
-3.21451e-40 -3.27392e-40 2.74397e-40 -1.56683e-40 1.7065e-40 -1.53338e-40 -3.32448e-40 1.73327e-40
-3.48332e-40 8.9194e-41 2.34621e-40 -1.80993e-40 2.85995e-40 3.37189e-40 7.96e-43 2.03785e-40
2.38486e-40 -9.0636e-41 2.70937e-40 -1.48475e-40 -2.51096e-40 3.01938e-40 -2.83876e-40 -2.52874e-40
2.37969e-40 -9.598e-41 3.2692e-41 -8.6766e-41 1.052e-42 -1.58478e-40 -3.40862e-40 4.9096e-41
-3.26183e-40 -4.7711e-41 1.15328e-40 -2.4905e-41 -1.24447e-40 -3.01625e-40 -3.28229e-40 3.39453e-40
-2.92755e-40 1.72283e-40 -3.2643e-40 3.9423e-41 -4.2681e-41 -1.27145e-40 1.369e-41 -1.86209e-40
6.8189e-41 -3.45485e-40 2.51362e-40 -2.66328e-40 -1.27148e-40 7.7653e-41 -8.0622e-41 2.54211e-40
1.01031e-40 4.9777e-41 2.5732e-40 -3.29695e-40 -6.3417e-41 7.6577e-41 1.73604e-40 1.6555e-40

localization.3.bias f4 [32]
00000000: 6f8a 9cb1 75d5 7e3b 8913 a2ba 35f8 e2b8
00000010: 4c8e aa89 5e2c 90b9 7ac9 8eb9 0ee8 76ba
00000020: e680 abb8 8f95 62b3 97e5 f8b9 1331 53bb
00000030: 7336 4aba 7e7d e4b9 9aed e6b9 72f4 943b
00000040: a8fd 3d80 584e b13a d2ff 35b6 0407 5ab9
00000050: 84a8 feb9 113e e694 8fc9 4bb7 edff 3fba
00000060: bb7d 8db9 5f9e e9b4 7f96 003f 180d 42ba
00000070: 7cc0 0c3b e542 5eba e93d 6bb5 f44d bd3e
-4.5559356e-09 0.0038884555 -0.0012365441 -0.00010822752 -4.1059827e-33 -0.00027498876 -0.00027234462 -0.0009418734
-8.1779246e-05 -5.2755748e-08 -0.00047473304 -0.0032225295 -0.0007713802 -0.00043581048 -0.00044046046 0.0045457417
-5.69296e-39 0.0013527377 -2.7120009e-06 -0.00020792714 -0.0004857221 -2.3248546e-26 -1.2146672e-05 -0.00073242077
-0.00026987292 -4.3514862e-07 0.5022964 -0.0007402464 0.0021477034 -0.0008478596 -8.7634413e-07 0.36973536

fc_loc.0.weight f4 [32, 896]
00000000: bf6c 0100 5afc 0200 3e0a 0000 5e9f 0380
00000010: 277f 0080 8443 0280 5124 0000 6013 0080
00000020: 0b12 0300 651a 9180 81c8 6080 5a07 0780
00000030: e163 0380 8868 0000 6eff 0100 d264 0100
00000040: 31c4 0080 4a6d 0000 1c99 0380 bc0a 0000
00000050: a90e 0000 0a06 0080 ab7b 0180 08eb 0080
00000060: 5251 0100 a8b3 0180 a46d 0080 4265 0380
00000070: 5652 133b b146 493a eb89 323a 6a06 7b3a
00000080: 3708 c139 a5c6 693a d697 613b b74c a73b
00000090: 4ca5 893b 01ba 793b fc0b 8b3b 9685 853b
000000a0: e1ac ad3b 0ad3 e43b fd5c 093b 46f1 c63a
000000b0: 1797 613b 19a7 593b d01b ed3a 2fda 3a3b
000000c0: 3542 8d3b 0a18 e33b a940 a73b 816a 4b3b
000000d0: 51c9 623b 870d 813b 0363 b03b 6bcf 213c
000000e0: b3ea 0ab9 71e3 e4b8 3518 8036 6a7d 3b38
000000f0: 2dfa ea38 2d29 dd37 ee65 5937 3a5b dab7
00000100: 8dbc 9638 5dd4 35b7 da9e 8838 28b6 f237
00000110: 8aea 89b8 cac6 d9b9 0cb3 eb39 09aa e338
00000120: 651a 1839 d55a 5639 e7bc 7e39 dbbd d036
00000130: 630f aa36 8f27 54b8 9692 8cb9 8672 e2b8
00000140: b416 afb7 8950 deb9 ec40 02ba ddd6 24b9
00000150: 2603 1c1d 313b 5524 f32d 1825 afde 9b26
00000160: 3216 3327 c84a 0827 2dc5 3926 3119 8925
00000170: 4c7e 3424 5080 d128 739d 2228 75c2 4627
00000180: 70b3 9824 65e2 cd18 ed25 191c d82e 3f25
00000190: 732e 7b29 8fee 852a a9ac 9e2a 73fb 002b
000001a0: 4193 dc29 e143 d529 d3c4 c827 640c 8228
000001b0: be42 2328 fe72 df28 58a5 f024 83dc 6b14
000001c0: 6db8 0380 9bd3 0080 f00e 0000 70ac 0080
000001d0: 7a50 0200 5f24 0000 e737 0180 b07e 0300
000001e0: 9415 0000 4b3b 0380 f6e8 0280 0883 0380
000001f0: f1bf 0180 7fa1 0080 4e6a 0380 d948 0180
00000200: a49d 0380 086a 0300 cad5 0280 00bf 0000
00000210: 9ec9 0100 e445 0000 4d9a 0380 bf39 0080
00000220: db45 0280 bc1a 0100 7913 0180 25e2 0280
00000230: 22ef 06b7 c734 8eb6 12ba bbb6 944f 99b6
00000240: f897 ddb6 166d b8b6 c91f acb6 40d8 8db6
00000250: 8fbf 43b6 fd97 efb5 6b29 afb5 cd26 4fb5
00000260: cc82 c2b4 89fb b6b2 30d3 47b6 3dc5 85b5
00000270: c7b5 0cb6 9bb3 e1b4 0c12 ebb4 39dc 86b5
00000280: 47ac a5b5 ef77 94b5 deda 9bb5 b406 efb4
00000290: 1725 d1b4 abbf 80b5 ccc1 8fb5 6701 dcb4
000002a0: 9aa5 0380 c072 0180 5e4d 0000 b0a8 0080
000002b0: eb80 0080 2e19 0280 ee65 0100 760a 0100
000002c0: c79c 0380 ce9d 0380 54aa 0180 2523 0100
000002d0: 7962 0000 8c3a 0300 5df6 0180 6a09 0200
000002e0: 0db4 3d01 b04c bd0d 50a4 9f07 feb2 0700
000002f0: 0866 0200 5335 0080 0083 0f02 a026 2103
00000300: 7ce3 1700 e4df 0080 90c8 0100 c679 0280
00000310: 6ffa 8939 8a9d d339 2de7 bc39 f1c6 a139
00000320: 7bf9 9c39 05bf a839 7431 e339 63ed e839
00000330: 95c6 cc39 b579 b739 994e cb39 b0be b239
00000340: 8344 1d39 29da 8735 5398 8839 59cb e139
00000350: cbb9 fe39 cbd5 ee39 968b 0c3a 5314 103a
00000360: 4a54 063a be5d e639 67b3 ec39 4d5c e939
00000370: 7f5e d639 c345 b439 c173 8339 e7bb 1c38
00000380: fab1 d42f facc 9230 8f13 0b31 bc0a 4531
00000390: a8e6 ac31 5402 cc31 7f2f d231 f303 4931
000003a0: e8c1 dd31 5c75 7531 76b5 9531 d057 7931
000003b0: 85c5 eead 19b8 d5ab 4b57 8730 6491 ba30
000003c0: c35c 5631 33b0 1832 dddd 0532 19e9 b832
000003d0: 62f3 1a33 7fdd 8b32 1725 5832 0d55 1a32
000003e0: 0194 1a32 01ed 3631 79dd d726 9ac5 0100
000003f0: 402f 0000 1fe4 0280 3185 0180 59ce 0100
1.30846e-40 2.74198e-40 3.674e-42 -3.32677e-40 -4.5614e-41 -2.07891e-40 1.3028e-41 -6.95e-42
2.81979e-40 -1.3325616e-38 -8.888135e-39 -6.45486e-40 -3.11336e-40 3.7499e-41 1.83466e-40 1.28003e-40
-7.038e-41 3.9206e-41 -3.30432e-40 3.851e-42 5.259e-42 -2.166e-42 -1.36199e-40 -8.4313e-41
1.21008e-40 -1.56284e-40 -3.9332e-41 -3.11831e-40 0.0022479496 0.00076780753 0.00068107125 0.0009575846
0.0003681795 0.0008917845 0.0034422777 0.0051055807 0.004200613 0.0038105252 0.004243372 0.0040747626
0.00530015 0.0069831656 0.0020959966 0.0015178106 0.0034422332 0.003321117 0.0018089954 0.0028511395
0.004310871 0.006930356 0.0051041436 0.0031038823 0.0034604857 0.00393838 0.005382897 0.009876112
-0.00013248138 -0.000109142515 3.8175153e-06 4.4701075e-05 0.000112045884 2.6364427e-05 1.295794e-05 -2.6030106e-05
7.187678e-05 -1.0837885e-05 6.514574e-05 2.8933471e-05 -6.5763554e-05 -0.00041537575 0.00044956093 0.00010855875
0.00014505682 0.00020442468 0.00024293699 6.220985e-06 5.068186e-06 -5.058158e-05 -0.00026812096 -0.000107978514
-2.0872198e-05 -0.00042403143 -0.00049687806 -0.00015720302 2.0648056e-21 4.623715e-17 1.3199467e-16 1.0815644e-15
2.4853272e-15 1.891433e-15 6.445199e-16 2.3782782e-16 3.9138256e-17 2.3259308e-14 9.026948e-15 2.7583435e-15
6.622347e-17 5.321986e-24 5.067247e-22 1.658248e-16 5.5773484e-14 2.379108e-13 2.8186245e-13 4.582369e-13
9.795507e-14 9.470875e-14 5.572455e-15 1.4438273e-14 9.06279e-15 2.4807843e-14 1.0436351e-16 1.1907956e-26
-3.41666e-40 -7.591e-41 5.359e-42 -6.1859e-41 2.1254e-40 1.3047e-41 -1.1189e-40 3.20953e-40
7.741e-42 -2.96777e-40 -2.67242e-40 -3.22512e-40 -1.60691e-40 -5.7934e-41 -3.13641e-40 -1.17968e-40
-3.32057e-40 3.13543e-40 -2.60364e-40 6.8518e-41 1.64162e-40 2.5072e-41 -3.30859e-40 -2.0715e-41
-2.0873e-40 1.01426e-40 -9.8821e-41 -2.64796e-40 -8.0427e-06 -4.238074e-06 -5.5946957e-06 -4.5690194e-06
-6.6040047e-06 -5.4963266e-06 -5.1296997e-06 -4.2273023e-06 -2.9168766e-06 -1.7851122e-06 -1.305057e-06 -7.716997e-07
-3.6230483e-07 -2.1301974e-08 -2.9776238e-06 -9.966676e-07 -2.0967434e-06 -4.2040196e-07 -4.3785292e-07 -1.0047871e-06
-1.2343597e-06 -1.1061765e-06 -1.1612099e-06 -4.4522096e-07 -3.895627e-07 -9.592526e-07 -1.0710733e-06 -4.0979214e-07
-3.34913e-40 -1.33e-40 2.7754e-41 -6.0514e-41 -4.6247e-41 -1.92704e-40 1.28401e-40 9.5588e-41
-3.31748e-40 -3.32116e-40 -1.52938e-40 1.04443e-40 3.5325e-41 2.96509e-40 -1.80214e-40 1.87048e-40
3.4842998e-38 1.1666486e-30 2.4020235e-34 7.07059e-40 2.20273e-40 -1.9129e-41 1.0543576e-37 4.7357987e-37
2.193822e-39 -8.0317e-41 1.63784e-40 -2.27355e-40 0.00026317264 0.00040362432 0.00036030394 0.00030856536
0.00029940516 0.00032185778 0.0004333366 0.00044427355 0.00039057867 0.0003499516 0.00038777737 0.0003409288
0.0001499821 1.0121777e-06 0.00026053432 0.0004306685 0.00048585082 0.00045554186 0.0005361376 0.00054961926
0.00051242544 0.00043938862 0.00045147093 0.00044509993 0.00040887666 0.00034384252 0.0002507251 3.7368296e-05
3.8689035e-10 1.0681156e-09 2.023828e-09 2.8673375e-09 5.0320814e-09 5.937446e-09 6.117204e-09 2.9251594e-09
6.453991e-09 3.5718903e-09 4.3571005e-09 3.6284185e-09 -2.7145184e-11 -1.5185658e-12 9.847353e-10 1.3574604e-09
3.1193828e-09 8.8876275e-09 7.792065e-09 2.152642e-08 3.6077275e-08 1.6282454e-08 1.2581288e-08 8.983318e-09
8.997632e-09 2.6619207e-09 1.4978652e-15 1.62722e-40 1.695e-41 -2.65505e-40 -1.39616e-40 1.65859e-40

fc_loc.0.bias f4 [32]
00000000: 5715 9c3e 7087 ef94 cd1d d0b9 9b68 1797
00000010: b8d2 d8bb 7d15 3cbd 1827 40ba b304 60b3
00000020: 4acd c8b3 c104 8cbc e3cd d1b9 fbd4 7e96
00000030: f6ee 11aa 4a1c 3990 5c9b fc3e 05ef 65bb
00000040: 397e 9ab9 7438 43a3 7fdf 0187 fffc 0184
00000050: 3e32 67b5 8f19 01ae b009 aeba 5882 c6b7
00000060: 0003 40bc 4136 2db0 401c 7fba 5f8a c9ba
00000070: aafd 2cba fcf0 113f ca38 163e 1c6f 14ba
0.3048503 -2.4186253e-26 -0.00039695055 -4.892276e-25 -0.0066169165 -0.04591893 -0.0007330044 -5.2158338e-08
-9.3505676e-08 -0.01709211 -0.00040016984 -2.0585161e-25 -1.2961493e-13 -3.650661e-29 0.4933728 -0.0035085094
-0.00029467212 -1.0582926e-17 -9.770561e-35 -1.5280047e-36 -8.612732e-07 -2.9353905e-11 -0.0013278034 -2.3664135e-05
-0.011719465 -6.3014133e-10 -0.00097316876 -0.0015376321 -0.0006599078 0.5700834 0.14670101 -0.00056623085

fc_loc.2.weight f4 [6, 32]
00000000: 7b68 8a3e 3e21 0180 9297 2dbd a1c5 8c0e
00000010: 1e6f 863a 9c2e f9bd 2742 713a 5f96 6a37
00000020: cc27 f339 04fe b1bd 7091 21b0 4aba 8d97
00000030: 74b1 18b5 70ce 842c 4ac3 8f3e 6b95 13bc
00000040: bed0 9dbb b845 0300 b8d9 3306 6bb4 0b00
00000050: e684 1db1 ecec 3433 80d6 243a b0de 3834
00000060: 30b9 72bb a444 412c 8fa8 03ba ce93 853a
00000070: 90c9 493a a2bf 3f3e 604e 24be 52ae 0e37
00000080: 3dc8 01be d76e 0000 2e0c 263e 1438 0000
00000090: 9341 893b c1aa b33c 8fac 0dba 825e 15b5
000000a0: d261 dbb6 696f 5a3d e7c9 0100 6cfe 0f98
000000b0: 7beb bc21 dba3 31b7 ce50 9abd 9e81 bb3c
000000c0: 3c5a beb9 d5e6 0280 bf83 d685 ad2a 2200
000000d0: 31c4 3a2e 9f65 722d 79df 35ba f64c 85b8
000000e0: f206 cc39 1942 3420 c102 d23a 62ba f4ba
000000f0: e091 33ba f014 e7bd 32e4 ecbe d898 f2b6
00000100: 6d1f 20bd c657 6a0b 67a7 583d 777e c324
00000110: d64b 6ebb c7d8 bdbd b5d9 4d3a db11 c8b7
00000120: e1ea ba39 9b4b b13c 7c89 80b7 f397 fd98
00000130: d3cd 66b7 3f16 f701 ce78 1a3e 6557 bb39
00000140: 6981 11bb 0dfe bba0 bb7a 0086 6da8 e401
00000150: 1210 a0b8 10ed 01ae a5c0 18b9 1e05 1c38
00000160: 3a80 a5bc 2127 10b5 e7c2 0138 42a0 03ba
00000170: 5c84 3bb8 ac59 1ebe 526b 943c bf2c 0939
00000180: 2809 0a3c fbb2 0180 6a07 393c 660e 0000
00000190: 3223 3e2d 3fa8 babb a858 89b8 e65d 82b3
000001a0: 6339 9fad 01b1 023c da77 e80d a74f 0017
000001b0: 18e3 378e 065f 2bae e057 91bb bd6f 2bbc
000001c0: 17bd 523b 8d4c 0300 e607 0006 fa12 b280
000001d0: 03ce 7332 cf14 c21b e55c 023a 7bb5 2738
000001e0: c967 c03b 8f81 e797 247c 22ba eff7 e13a
000001f0: 1310 66ba e139 03bc 4324 3c3c f4c8 7ab0
00000200: 12d4 85bc caba 0100 1eac 833d 8ac6 0080
00000210: b2db 38ab ecc6 bd3b 90ce 93b8 2948 6c2a
00000220: 016d 90a9 bdde 81bc 755e 7d0f 2c30 6817
00000230: 4b12 028e 662d 2d30 4702 70bb 26f5 a839
00000240: ffed 753b 7830 0000 deb8 de04 dc73 6680
00000250: a9f6 8802 7e55 6e20 fbc3 6cba dc54 212a
00000260: 8c67 5a3c b0f9 3f00 e19d d9ba 3ad8 79bb
00000270: 2f0a 403a c8ab 923b 49bb 21bc 9550 bead
00000280: ff0e 34bb 7490 0080 39bd 6cbc 25cb 0200
00000290: d3b0 5738 2d56 d5bb d1b6 00b9 3c52 5436
000002a0: c5e4 a6b5 83cb 653c 800e 8317 f907 3c96
000002b0: 585f f9af 4a7c bdb7 032d cabb 5f15 dfbb
000002c0: 78a9 c5ba 7ea2 0300 859c 1185 f024 f680
000002d0: 9f9e 0836 6d18 75b2 d248 293a 0e0d efb0
000002e0: a97e 353c 4e95 ed27 0094 91b9 a29a 91ba
000002f0: 55d7 123a 56bf 9b3b 2d94 cabb 5a72 5135
0.27032837 -1.0376e-40 -0.042380877 3.4702974e-30 0.0010256504 -0.12167093 0.0009203278 1.3982498e-05
0.00046378223 -0.08691028 -5.877814e-10 -9.158937e-25 -5.688264e-07 3.774585e-12 0.2807868 -0.009007792
-0.004816144 3.00517e-40 3.3826113e-35 1.074912e-39 -2.292205e-09 4.2124995e-08 0.00062880665 1.7217349e-07
-0.003703665 2.7465053e-12 -0.00050223706 0.0010191144 0.00076975767 0.18725446 -0.16045523 8.504447e-06
-0.12674041 3.9762e-41 0.16215584 2.0117e-41 0.0041887253 0.021932008 -0.00054044364 -5.564435e-07
-6.5380964e-06 0.053328905 1.64264e-40 -1.8610767e-24 1.2801707e-18 -1.0588173e-05 -0.075349435 0.022888955
-0.00036306854 -2.66478e-40 -2.0172859e-35 3.137716e-39 4.2465757e-11 1.3778672e-11 -0.0006937902 -6.356269e-05
0.00038915087 1.5268463e-19 0.0016022549 -0.0018671269 -0.0006850045 -0.112832904 -0.4626785 -7.2299554e-06
-0.03909247 4.5132794e-32 0.052894022 8.478201e-17 -0.003636112 -0.092698626 0.000785257 -2.3850173e-05
0.00035651683 0.021642497 -1.532281e-05 -6.5552397e-24 -1.37569905e-05 9.076539e-38 0.15085146 0.00035732533
-0.0022202379 -3.184715e-19 -2.4164292e-35 8.399565e-38 -7.632388e-05 -2.9541758e-11 -0.00014567615 3.7198064e-05
-0.020202745 -5.370112e-07 3.0937514e-05 -0.00050211337 -4.4707544e-05 -0.15463895 0.01811758 0.00013082007
0.008425035 -1.56042e-40 0.011293272 5.165e-42 1.08080645e-11 -0.005696326 -6.5491826e-05 -6.070677e-08
-1.8101692e-11 0.007976771 1.4326957e-30 4.1459566e-25 -2.2665833e-30 -3.8965296e-11 -0.0044355243 -0.010463652
0.0032156163 3.02968e-40 2.4079927e-35 -1.6353526e-38 1.4191303e-08 3.2108055e-22 0.0004972949 3.998492e-05
0.005871747 -1.496073e-24 -0.0006198308 0.0017240028 -0.0008776199 -0.008009405 0.011483255 -9.123504e-10
-0.016336475 1.58843e-40 0.06429313 -7.1222e-41 -6.567482e-13 0.0057915356 -7.0479815e-05 2.0986046e-13
-6.413794e-14 -0.01585328 1.2492055e-29 7.5024044e-25 -1.6032545e-30 6.300155e-10 -0.003662245 0.00032226107
0.003752589 1.7387e-41 5.2361723e-36 -9.408783e-39 2.012498e-37 2.0187671e-19 -0.0009031889 1.4329114e-13
0.013330352 5.875207e-39 -0.0016602838 -0.0038123266 0.0007325736 0.0044760443 -0.009871312 -2.1636285e-11
-0.0027474759 -5.182e-41 -0.014449411 2.56546e-40 5.1424675e-05 -0.006510517 -0.00012275136 3.1638328e-06
-1.2434544e-06 0.014025572 8.469337e-25 -1.5189035e-25 -4.5360582e-10 -2.2588432e-05 -0.0061699166 -0.0068079676
-0.0015080413 3.33798e-40 -6.846615e-36 -2.2604783e-38 2.0357909e-06 -1.4266431e-08 0.00064576895 -1.7393249e-09
0.011077561 6.594259e-15 -0.00027766824 -0.0011108706 0.0005601545 0.0047530336 -0.0061822147 7.802497e-07

fc_loc.2.bias f4 [6]
00000000: 7bc6 563f aa8b 673e 298a 8b3d df39 90bd
00000010: 81d2 7d3f 40b8 223d
0.8389661 0.22611871 0.06813461 -0.07042288 0.9914933 0.039726496
